…
                "required": [
                    "lr_updates",
                    "lr_decay_factor"
                ]
            },
            "required": [
                "max_epochs",
                "lr_mode",
                "initial_lr",
                "loss"
            ]
        },
        "checkpoint_path": "/content/drive/MyDrive/Dataset/checkpoint_backup",
        "model": "YoloNAS_L(\n  (backbone): NStageBackbone(\n    (stem): YoloNASStem(\n      (conv): QARepVGGBlock(\n        (nonlinearity): ReLU(inplace=True)\n        (se): Identity()\n        (branch_3x3): Sequential(\n          (conv): Conv2d(3, 48, kernel_size=(3, 3), stride=(2, 2), padding=(1, 1), bias=False)\n          (bn): BatchNorm2d(48, eps=0.001, momentum=0.03, affine=True, track_running_stats=True)\n        )\n        (branch_1x1): Conv2d(3, 48, kernel_size=(1, 1), stride=(2, 2))\n        (post_bn): BatchNorm2d(48, eps=0.001, momentum=0.03, affine=True, track_running_stats=True)\n        (rbr_reparam): Conv2d(3, 48, kernel_size=(3, 3), stride=(2, 2), padding=(1, 1))\n      )\n    )\n    (stage1): YoloNASStage(\n      (downsample): QARepVGGBlock(\n        (nonlinearity): ReLU(inplace=True)\n        (se): Identity()\n        (branch_3x3): Sequential(\n          (conv): Conv2d(48, 96, kernel_size=(3, 3), stride=(2, 2), padding=(1, 1), bias=False)\n          (bn): BatchNorm2d(96, eps=0.001, momentum=0.03, affine=True, track_running_stats=True)\n        )\n        (branch_1x1): Conv2d(48, 96, kernel_size=(1, 1), stride=(2, 2))\n        (post_bn): BatchNorm2d(96, eps=0.001, momentum=0.03, affine=True, track_running_stats=True)\n        (rbr_reparam): Conv2d(48, 96, kernel_size=(3, 3), stride=(2, 2), padding=(1, 1))\n      )\n      (blocks): YoloNASCSPLayer(\n        (conv1): Conv(\n          (conv): Conv2d(96, 96, kernel_size=(1, 1), stride=(1, 1), bias=False)\n          (bn): BatchNorm2d(96, eps=0.001, momentum=0.03, affine=True, track_running_stats=True)\n          (act): ReLU(inplace=True)\n        )\n        (conv2): Conv(\n          (conv): Conv2d(96, 96, kernel_size=(1, 1), stride=(1, 1), bias=False)\n          (bn): BatchNorm2d(96, eps=0.001, momentum=0.03, affine=True, track_running_stats=True)\n          (act): ReLU(inplace=True)\n        )\n        (conv3): Conv(\n          (conv): Conv2d(384, 96, kernel_size=(1, 1), stride=(1, 1), bias=False)\n          (bn): BatchNorm2d(96, eps=0.001, momentum=0.03, affine=True, track_running_stats=True)\n          (act): ReLU(inplace=True)\n        )\n        (bottlenecks): SequentialWithIntermediates(\n          (0): YoloNASBottleneck(\n            (cv1): QARepVGGBlock(\n              (nonlinearity): ReLU(inplace=True)\n              (se): Identity()\n              (branch_3x3): Sequential(\n                (conv): Conv2d(96, 96, kernel_size=(3, 3), stride=(1, 1), padding=(1, 1), bias=False)\n                (bn): BatchNorm2d(96, eps=0.001, momentum=0.03, affine=True, track_running_stats=True)\n              )\n              (branch_1x1): Conv2d(96, 96, kernel_size=(1, 1), stride=(1, 1))\n              (identity): Residual()\n              (post_bn): BatchNorm2d(96, eps=0.001, momentum=0.03, affine=True, track_running_stats=True)\n              (rbr_reparam): Conv2d(96, 96, kernel_size=(3, 3), stride=(1, 1), padding=(1, 1))\n            )\n            (cv2): QARepVGGBlock(\n              (nonlinearity): ReLU(inplace=True)\n              (se): Identity()\n              (branch_3x3): Sequential(\n                (conv): Conv2d(96, 96, kernel_size=(3, 3), stride=(1, 1), padding=(1, 1), bias=False)\n                (bn): BatchNorm2d(96, eps=0.001, momentum=0.03, affine=True, track_running_stats=True)\n              )\n              (branch_1x1): Conv2d(96, 96, kernel_size=(1, 1), stride=(1, 1))\n              (identity): Residual()\n              (post_bn): BatchNorm2d(96, eps=0.001, momentum=0.03, affine=True, track_running_stats=True)\n              (rbr_reparam): Conv2d(96, 96, kernel_size=(3, 3), stride=(1, 1), padding=(1, 1))\n            )\n            (shortcut): Residual()\n            (drop_path): Identity()\n          )\n          (1): YoloNASBottleneck(\n            (cv1): QARepVGGBlock(\n              (nonlinearity): ReLU(inplace=True)\n              (se): Identity()\n              (branch_3x3): Sequential(\n                (conv): Conv2d(96, 96, kernel_size=(3, 3), stride=(1, 1), padding=(1, 1), bias=False)\n                (bn): BatchNorm2d(96, eps=0.001, momentum=0.03, affine=True, track_running_stats=True)\n              )\n              (branch_1x1): Conv2d(96, 96, kernel_size=(1, 1), stride=(1, 1))\n              (identity): Residual()\n              (post_bn): BatchNorm2d(96, eps=0.001, momentum=0.03, affine=True, track_running_stats=True)\n              (rbr_reparam): Conv2d(96, 96, kernel_size=(3, 3), stride=(1, 1), padding=(1, 1))\n            )\n            (cv2): QARepVGGBlock(\n              (nonlinearity): ReLU(inplace=True)\n              (se): Identity()\n              (branch_3x3): Sequential(\n                (conv): Conv2d(96, 96, kernel_size=(3, 3), stride=(1, 1), padding=(1, 1), bias=False)\n                (bn): BatchNorm2d(96, eps=0.001, momentum=0.03, affine=True, track_running_stats=True)\n              )\n              (branch_1x1): Conv2d(96, 96, kernel_size=(1, 1), stride=(1, 1))\n              (identity): Residual()\n              (post_bn): BatchNorm2d(96, eps=0.001, momentum=0.03, affine=True, track_running_stats=True)\n              (rbr_reparam): Conv2d(96, 96, kernel_size=(3, 3), stride=(1, 1), padding=(1, 1))\n            )\n            (shortcut): Residual()\n            (drop_path): Identity()\n          )\n        )\n        (dropout): Identity()\n      )\n    )\n    (stage2): YoloNASStage(\n      (downsample): QARepVGGBlock(\n        (nonlinearity): ReLU(inplace=True)\n        (se): Identity()\n        (branch_3x3): Sequential(\n          (conv): Conv2d(96, 192, kernel_size=(3, 3), stride=(2, 2), padding=(1, 1), bias=False)\n          (bn): BatchNorm2d(192, eps=0.001, momentum=0.03, affine=True, track_running_stats=True)\n        )\n        (branch_1x1): Conv2d(96, 192, kernel_size=(1, 1), stride=(2, 2))\n        (post_bn): BatchNorm2d(192, eps=0.001, momentum=0.03, affine=True, track_running_stats=True)\n        (rbr_reparam): Conv2d(96, 192, kernel_size=(3, 3), stride=(2, 2), padding=(1, 1))\n      )\n      (blocks): YoloNASCSPLayer(\n        (conv1): Conv(\n          (conv): Conv2d(192, 128, kernel_size=(1, 1), stride=(1, 1), bias=False)\n          (bn): BatchNorm2d(128, eps=0.001, momentum=0.03, affine=True, track_running_stats=True)\n          (act): ReLU(inplace=True)\n        )\n        (conv2): Conv(\n          (conv): Conv2d(192, 128, kernel_size=(1, 1), stride=(1, 1), bias=False)\n          (bn): BatchNorm2d(128, eps=0.001, momentum=0.03, affine=True, track_running_stats=True)\n          (act): ReLU(inplace=True)\n        )\n        (conv3): Conv(\n          (conv): Conv2d(640, 192, kernel_size=(1, 1), stride=(1, 1), bias=False)\n          (bn): BatchNorm2d(192, eps=0.001, momentum=0.03, affine=True, track_running_stats=True)\n          (act): ReLU(inplace=True)\n        )\n        (bottlenecks): SequentialWithIntermediates(\n          (0): YoloNASBottleneck(\n            (cv1): QARepVGGBlock(\n              (nonlinearity): ReLU(inplace=True)\n              (se): Identity()\n              (branch_3x3): Sequential(\n                (conv): Conv2d(128, 128, kernel_size=(3, 3), stride=(1, 1), padding=(1, 1), bias=False)\n                (bn): BatchNorm2d(128, eps=0.001, momentum=0.03, affine=True, track_running_stats=True)\n              )\n              (branch_1x1): Conv2d(128, 128, kernel_size=(1, 1), stride=(1, 1))\n              (identity): Residual()\n              (post_bn): BatchNorm2d(128, eps=0.001, momentum=0.03, affine=True, track_running_stats=True)\n              (rbr_reparam): Conv2d(128, 128, kernel_size=(3, 3), stride=(1, 1), padding=(1, 1))\n            )\n            (cv2): QARepVGGBlock(\n              (nonlinearity): ReLU(inplace=True)\n              (se): Identity()\n              (branch_3x3): Sequential(\n                (conv): Conv2d(128, 128, kernel_size=(3, 3), stride=(1, 1), padding=(1, 1), bias=False)\n                (bn): BatchNorm2d(128, eps=0.001, momentum=0.03, affine=True, track_running_stats=True)\n              )\n              (branch_1x1): Conv2d(128, 128, kernel_size=(1, 1), stride=(1, 1))\n              (identity): Residual()\n              (post_bn): BatchNorm2d(128, eps=0.001, momentum=0.03, affine=True, track_running_stats=True)\n              (rbr_reparam): Conv2d(128, 128, kernel_size=(3, 3), stride=(1, 1), padding=(1, 1))\n            )\n            (shortcut): Residual()\n            (drop_path): Identity()\n          )\n          (1): YoloNASBottleneck(\n            (cv1): QARepVGGBlock(\n              (nonlinearity): ReLU(inplace=True)\n              (se): Identity()\n              (branch_3x3): Sequential(\n                (conv): Conv2d(128, 128, kernel_size=(3, 3), stride=(1, 1), padding=(1, 1), bias=False)\n                (bn): BatchNorm2d(128, eps=0.001, momentum=0.03, affine=True, track_running_stats=True)\n              )\n              (branch_1x1): Conv2d(128, 128, kernel_size=(1, 1), stride=(1, 1))\n              (identity): Residual()\n              (post_bn): BatchNorm2d(128, eps=0.001, momentum=0.03, affine=True, track_running_stats=True)\n              (rbr_reparam): Conv2d(128, 128, kernel_size=(3, 3), stride=(1, 1), padding=(1, 1))\n            )\n            (cv2): QARepVGGBlock(\n              (nonlinearity): ReLU(inplace=True)\n              (se): Identity()\n              (branch_3x3): Sequential(\n                (conv): Conv2d(128, 128, kernel_size=(3, 3), stride=(1, 1), padding=(1, 1), bias=False)\n                (bn): BatchNorm2d(128, eps=0.001, momentum=0.03, affine=True, track_running_stats=True)\n              )\n              (branch_1x1): Conv2d(128, 128, kernel_size=(1, 1), stride=(1, 1))\n              (identity): Residual()\n              (post_bn): BatchNorm2d(128, eps=0.001, momentum=0.03, affine=True, track_running_stats=True)\n              (rbr_reparam): Conv2d(128, 128, kernel_size=(3, 3), stride=(1, 1), padding=(1, 1))\n            )\n            (shortcut): Residual()\n            (drop_path): Identity()\n          )\n          (2): YoloNASBottleneck(\n            (cv1): QARepVGGBlock(\n              (nonlinearity): ReLU(inplace=True)\n              (se): Identity()\n              (branch_3x3): Sequential(\n                (conv): Conv2d(128, 128, kernel_size=(3, 3), stride=(1, 1), padding=(1, 1), bias=False)\n                (bn): BatchNorm2d(128, eps=0.001, momentum=0.03, affine=True, track_running_stats=True)\n              )\n              (branch_1x1): Conv2d(128, 128, kernel_size=(1, 1), stride=(1, 1))\n              (identity): Residual()\n              (post_bn): BatchNorm2d(128, eps=0.001, momentum=0.03, affine=True, track_running_stats=True)\n              (rbr_reparam): Conv2d(128, 128, kernel_size=(3, 3), stride=(1, 1), padding=(1, 1))\n            )\n            (cv2): QARepVGGBlock(\n              (nonlinearity): ReLU(inplace=True)\n              (se): Identity()\n              (branch_3x3): Sequential(\n                (conv): Conv2d(128, 128, kernel_size=(3, 3), stride=(1, 1), padding=(1, 1), bias=False)\n                (bn): BatchNorm2d(128, eps=0.001, momentum=0.03, affine=True, track_running_stats=True)\n              )\n              (branch_1x1): Conv2d(128, 128, kernel_size=(1, 1), stride=(1, 1))\n              (identity): Residual()\n              (post_bn): BatchNorm2d(128, eps=0.001, momentum=0.03, affine=True, track_running_stats=True)\n              (rbr_reparam): Conv2d(128, 128, kernel_size=(3, 3), stride=(1, 1), padding=(1, 1))\n            )\n            (shortcut): Residual()\n            (drop_path): Identity()\n          )\n        )\n        (dropout): Identity()\n      )\n    )\n    (stage3): YoloNASStage(\n      (downsample): QARepVGGBlock(\n        (nonlinearity): ReLU(inplace=True)\n        (se): Identity()\n        (branch_3x3): Sequential(\n          (conv): Conv2d(192, 384, kernel_size=(3, 3), stride=(2, 2), padding=(1, 1), bias=False)\n          (bn): BatchNorm2d(384, eps=0.001, momentum=0.03, affine=True, track_running_stats=True)\n        )\n        (branch_1x1): Conv2d(192, 384, kernel_size=(1, 1), stride=(2, 2))\n        (post_bn): BatchNorm2d(384, eps=0.001, momentum=0.03, affine=True, track_running_stats=True)\n        (rbr_reparam): Conv2d(192, 384, kernel_size=(3, 3), stride=(2, 2), padding=(1, 1))\n      )\n      (blocks): YoloNASCSPLayer(\n        (conv1): Conv(\n          (conv): Conv2d(384, 256, kernel_size=(1, 1), stride=(1, 1), bias=False)\n          (bn): BatchNorm2d(256, eps=0.001, momentum=0.03, affine=True, track_running_stats=True)\n          (act): ReLU(inplace=True)\n        )\n        (conv2): Conv(\n          (conv): Conv2d(384, 256, kernel_size=(1, 1), stride=(1, 1), bias=False)\n          (bn): BatchNorm2d(256, eps=0.001, momentum=0.03, affine=True, track_running_stats=True)\n          (act): ReLU(inplace=True)\n        )\n        (conv3): Conv(\n          (conv): Conv2d(1792, 384, kernel_size=(1, 1), stride=(1, 1), bias=False)\n          (bn): BatchNorm2d(384, eps=0.001, momentum=0.03, affine=True, track_running_stats=True)\n          (act): ReLU(inplace=True)\n        )\n        (bottlenecks): SequentialWithIntermediates(\n          (0): YoloNASBottleneck(\n            (cv1): QARepVGGBlock(\n              (nonlinearity): ReLU(inplace=True)\n              (se): Identity()\n              (branch_3x3): Sequential(\n                (conv): Conv2d(256, 256, kernel_size=(3, 3), stride=(1, 1), padding=(1, 1), bias=False)\n                (bn): BatchNorm2d(256, eps=0.001, momentum=0.03, affine=True, track_running_stats=True)\n              )\n              (branch_1x1): Conv2d(256, 256, kernel_size=(1, 1), stride=(1, 1))\n              (identity): Residual()\n              (post_bn): BatchNorm2d(256, eps=0.001, momentum=0.03, affine=True, track_running_stats=True)\n              (rbr_reparam): Conv2d(256, 256, kernel_size=(3, 3), stride=(1, 1), padding=(1, 1))\n            )\n            (cv2): QARepVGGBlock(\n              (nonlinearity): ReLU(inplace=True)\n              (se): Identity()\n              (branch_3x3): Sequential(\n                (conv): Conv2d(256, 256, kernel_size=(3, 3), stride=(1, 1), padding=(1, 1), bias=False)\n                (bn): BatchNorm2d(256, eps=0.001, momentum=0.03, affine=True, track_running_stats=True)\n              )\n              (branch_1x1): Conv2d(256, 256, kernel_size=(1, 1), stride=(1, 1))\n              (identity): Residual()\n              (post_bn): BatchNorm2d(256, eps=0.001, momentum=0.03, affine=True, track_running_stats=True)\n              (rbr_reparam): Conv2d(256, 256, kernel_size=(3, 3), stride=(1, 1), padding=(1, 1))\n            )\n            (shortcut): Residual()\n            (drop_path): Identity()\n          )\n          (1): YoloNASBottleneck(\n            (cv1): QARepVGGBlock(\n              (nonlinearity): ReLU(inplace=True)\n              (se): Identity()\n              (branch_3x3): Sequential(\n                (conv): Conv2d(256, 256, kernel_size=(3, 3), stride=(1, 1), padding=(1, 1), bias=False)\n                (bn): BatchNorm2d(256, eps=0.001, momentum=0.03, affine=True, track_running_stats=True)\n              )\n              (branch_1x1): Conv2d(256, 256, kernel_size=(1, 1), stride=(1, 1))\n              (identity): Residual()\n              (post_bn): BatchNorm2d(256, eps=0.001, momentum=0.03, affine=True, track_running_stats=True)\n              (rbr_reparam): Conv2d(256, 256, kernel_size=(3, 3), stride=(1, 1), padding=(1, 1))\n            )\n            (cv2): QARepVGGBlock(\n              (nonlinearity): ReLU(inplace=True)\n              (se): Identity()\n              (branch_3x3): Sequential(\n                (conv): Conv2d(256, 256, kernel_size=(3, 3), stride=(1, 1), padding=(1, 1), bias=False)\n                (bn): BatchNorm2d(256, eps=0.001, momentum=0.03, affine=True, track_running_stats=True)\n              )\n              (branch_1x1): Conv2d(256, 256, kernel_size=(1, 1), stride=(1, 1))\n              (identity): Residual()\n              (post_bn): BatchNorm2d(256, eps=0.001, momentum=0.03, affine=True, track_running_stats=True)\n              (rbr_reparam): Conv2d(256, 256, kernel_size=(3, 3), stride=(1, 1), padding=(1, 1))\n            )\n            (shortcut): Residual()\n            (drop_path): Identity()\n          )\n          (2): YoloNASBottleneck(\n            (cv1): QARepVGGBlock(\n              (nonlinearity): ReLU(inplace=True)\n              (se): Identity()\n              (branch_3x3): Sequential(\n                (conv): Conv2d(256, 256, kernel_size=(3, 3), stride=(1, 1), padding=(1, 1), bias=False)\n                (bn): BatchNorm2d(256, eps=0.001, momentum=0.03, affine=True, track_running_stats=True)\n              )\n              (branch_1x1): Conv2d(256, 256, kernel_size=(1, 1), stride=(1, 1))\n              (identity): Residual()\n              (post_bn): BatchNorm2d(256, eps=0.001, momentum=0.03, affine=True, track_running_stats=True)\n              (rbr_reparam): Conv2d(256, 256, kernel_size=(3, 3), stride=(1, 1), padding=(1, 1))\n            )\n            (cv2): QARepVGGBlock(\n              (nonlinearity): ReLU(inplace=True)\n              (se): Identity()\n              (branch_3x3): Sequential(\n                (conv): Conv2d(256, 256, kernel_size=(3, 3), stride=(1, 1), padding=(1, 1), bias=False)\n                (bn): BatchNorm2d(256, eps=0.001, momentum=0.03, affine=True, track_running_stats=True)\n              )\n              (branch_1x1): Conv2d(256, 256, kernel_size=(1, 1), stride=(1, 1))\n              (identity): Residual()\n              (post_bn): BatchNorm2d(256, eps=0.001, momentum=0.03, affine=True, track_running_stats=True)\n              (rbr_reparam): Conv2d(256, 256, kernel_size=(3, 3), stride=(1, 1), padding=(1, 1))\n            )\n            (shortcut): Residual()\n            (drop_path): Identity()\n          )\n          (3): YoloNASBottleneck(\n            (cv1): QARepVGGBlock(\n              (nonlinearity): ReLU(inplace=True)\n              (se): Identity()\n              (branch_3x3): Sequential(\n                (conv): Conv2d(256, 256, kernel_size=(3, 3), stride=(1, 1), padding=(1, 1), bias=False)\n                (bn): BatchNorm2d(256, eps=0.001, momentum=0.03, affine=True, track_running_stats=True)\n              )\n              (branch_1x1): Conv2d(256, 256, kernel_size=(1, 1), stride=(1, 1))\n              (identity): Residual()\n              (post_bn): BatchNorm2d(256, eps=0.001, momentum=0.03, affine=True, track_running_stats=True)\n              (rbr_reparam): Conv2d(256, 256, kernel_size=(3, 3), stride=(1, 1), padding=(1, 1))\n            )\n            (cv2): QARepVGGBlock(\n              (nonlinearity): ReLU(inplace=True)\n              (se): Identity()\n              (branch_3x3): Sequential(\n                (conv): Conv2d(256, 256, kernel_size=(3, 3), stride=(1, 1), padding=(1, 1), bias=False)\n                (bn): BatchNorm2d(256, eps=0.001, momentum=0.03, affine=True, track_running_stats=True)\n              )\n              (branch_1x1): Conv2d(256, 256, kernel_size=(1, 1), stride=(1, 1))\n              (identity): Residual()\n              (post_bn): BatchNorm2d(256, eps=0.001, momentum=0.03, affine=True, track_running_stats=True)\n              (rbr_reparam): Conv2d(256, 256, kernel_size=(3, 3), stride=(1, 1), padding=(1, 1))\n            )\n            (shortcut): Residual()\n            (drop_path): Identity()\n          )\n          (4): YoloNASBottleneck(\n            (cv1): QARepVGGBlock(\n              (nonlinearity): ReLU(inplace=True)\n              (se): Identity()\n              (branch_3x3): Sequential(\n                (conv): Conv2d(256, 256, kernel_size=(3, 3), stride=(1, 1), padding=(1, 1), bias=False)\n                (bn): BatchNorm2d(256, eps=0.001, momentum=0.03, affine=True, track_running_stats=True)\n              )\n              (branch_1x1): Conv2d(256, 256, kernel_size=(1, 1), stride=(1, 1))\n              (identity): Residual()\n              (post_bn): BatchNorm2d(256, eps=0.001, momentum=0.03, affine=True, track_running_stats=True)\n              (rbr_reparam): Conv2d(256, 256, kernel_size=(3, 3), stride=(1, 1), padding=(1, 1))\n            )\n            (cv2): QARepVGGBlock(\n              (nonlinearity): ReLU(inplace=True)\n              (se): Identity()\n              (branch_3x3): Sequential(\n                (conv): Conv2d(256, 256, kernel_size=(3, 3), stride=(1, 1), padding=(1, 1), bias=False)\n                (bn): BatchNorm2d(256, eps=0.001, momentum=0.03, affine=True, track_running_stats=True)\n              )\n              (branch_1x1): Conv2d(256, 256, kernel_size=(1, 1), stride=(1, 1))\n              (identity): Residual()\n              (post_bn): BatchNorm2d(256, eps=0.001, momentum=0.03, affine=True, track_running_stats=True)\n              (rbr_reparam): Conv2d(256, 256, kernel_size=(3, 3), stride=(1, 1), padding=(1, 1))\n            )\n            (shortcut): Residual()\n            (drop_path): Identity()\n          )\n        )\n        (dropout): Identity()\n      )\n    )\n    (stage4): YoloNASStage(\n      (downsample): QARepVGGBlock(\n        (nonlinearity): ReLU(inplace=True)\n        (se): Identity()\n        (branch_3x3): Sequential(\n          (conv): Conv2d(384, 768, kernel_size=(3, 3), stride=(2, 2), padding=(1, 1), bias=False)\n          (bn): BatchNorm2d(768, eps=0.001, momentum=0.03, affine=True, track_running_stats=True)\n        )\n        (branch_1x1): Conv2d(384, 768, kernel_size=(1, 1), stride=(2, 2))\n        (post_bn): BatchNorm2d(768, eps=0.001, momentum=0.03, affine=True, track_running_stats=True)\n        (rbr_reparam): Conv2d(384, 768, kernel_size=(3, 3), stride=(2, 2), padding=(1, 1))\n      )\n      (blocks): YoloNASCSPLayer(\n        (conv1): Conv(\n          (conv): Conv2d(768, 512, kernel_size=(1, 1), stride=(1, 1), bias=False)\n          (bn): BatchNorm2d(512, eps=0.001, momentum=0.03, affine=True, track_running_stats=True)\n          (act): ReLU(inplace=True)\n        )\n        (conv2): Conv(\n          (conv): Conv2d(768, 512, kernel_size=(1, 1), stride=(1, 1), bias=False)\n          (bn): BatchNorm2d(512, eps=0.001, momentum=0.03, affine=True, track_running_stats=True)\n          (act): ReLU(inplace=True)\n        )\n        (conv3): Conv(\n          (conv): Conv2d(2048, 768, kernel_size=(1, 1), stride=(1, 1), bias=False)\n          (bn): BatchNorm2d(768, eps=0.001, momentum=0.03, affine=True, track_running_stats=True)\n          (act): ReLU(inplace=True)\n        )\n        (bottlenecks): SequentialWithIntermediates(\n          (0): YoloNASBottleneck(\n            (cv1): QARepVGGBlock(\n              (nonlinearity): ReLU(inplace=True)\n              (se): Identity()\n              (branch_3x3): Sequential(\n                (conv): Conv2d(512, 512, kernel_size=(3, 3), stride=(1, 1), padding=(1, 1), bias=False)\n                (bn): BatchNorm2d(512, eps=0.001, momentum=0.03, affine=True, track_running_stats=True)\n              )\n              (branch_1x1): Conv2d(512, 512, kernel_size=(1, 1), stride=(1, 1))\n              (identity): Residual()\n              (post_bn): BatchNorm2d(512, eps=0.001, momentum=0.03, affine=True, track_running_stats=True)\n              (rbr_reparam): Conv2d(512, 512, kernel_size=(3, 3), stride=(1, 1), padding=(1, 1))\n            )\n            (cv2): QARepVGGBlock(\n              (nonlinearity): ReLU(inplace=True)\n              (se): Identity()\n              (branch_3x3): Sequential(\n                (conv): Conv2d(512, 512, kernel_size=(3, 3), stride=(1, 1), padding=(1, 1), bias=False)\n                (bn): BatchNorm2d(512, eps=0.001, momentum=0.03, affine=True, track_running_stats=True)\n              )\n              (branch_1x1): Conv2d(512, 512, kernel_size=(1, 1), stride=(1, 1))\n              (identity): Residual()\n              (post_bn): BatchNorm2d(512, eps=0.001, momentum=0.03, affine=True, track_running_stats=True)\n              (rbr_reparam): Conv2d(512, 512, kernel_size=(3, 3), stride=(1, 1), padding=(1, 1))\n            )\n            (shortcut): Residual()\n            (drop_path): Identity()\n          )\n          (1): YoloNASBottleneck(\n            (cv1): QARepVGGBlock(\n              (nonlinearity): ReLU(inplace=True)\n              (se): Identity()\n              (branch_3x3): Sequential(\n                (conv): Conv2d(512, 512, kernel_size=(3, 3), stride=(1, 1), padding=(1, 1), bias=False)\n                (bn): BatchNorm2d(512, eps=0.001, momentum=0.03, affine=True, track_running_stats=True)\n              )\n              (branch_1x1): Conv2d(512, 512, kernel_size=(1, 1), stride=(1, 1))\n              (identity): Residual()\n              (post_bn): BatchNorm2d(512, eps=0.001, momentum=0.03, affine=True, track_running_stats=True)\n              (rbr_reparam): Conv2d(512, 512, kernel_size=(3, 3), stride=(1, 1), padding=(1, 1))\n            )\n            (cv2): QARepVGGBlock(\n              (nonlinearity): ReLU(inplace=True)\n              (se): Identity()\n              (branch_3x3): Sequential(\n                (conv): Conv2d(512, 512, kernel_size=(3, 3), stride=(1, 1), padding=(1, 1), bias=False)\n                (bn): BatchNorm2d(512, eps=0.001, momentum=0.03, affine=True, track_running_stats=True)\n              )\n              (branch_1x1): Conv2d(512, 512, kernel_size=(1, 1), stride=(1, 1))\n              (identity): Residual()\n              (post_bn): BatchNorm2d(512, eps=0.001, momentum=0.03, affine=True, track_running_stats=True)\n              (rbr_reparam): Conv2d(512, 512, kernel_size=(3, 3), stride=(1, 1), padding=(1, 1))\n            )\n            (shortcut): Residual()\n            (drop_path): Identity()\n          )\n        )\n        (dropout): Identity()\n      )\n    )\n    (context_module): SPP(\n      (cv1): Conv(\n        (conv): Conv2d(768, 384, kernel_size=(1, 1), stride=(1, 1), bias=False)\n        (bn): BatchNorm2d(384, eps=0.001, momentum=0.03, affine=True, track_running_stats=True)\n        (act): ReLU(inplace=True)\n      )\n      (cv2): Conv(\n        (conv): Conv2d(1536, 768, kernel_size=(1, 1), stride=(1, 1), bias=False)\n        (bn): BatchNorm2d(768, eps=0.001, momentum=0.03, affine=True, track_running_stats=True)\n        (act): ReLU(inplace=True)\n      )\n      (m): ModuleList(\n        (0): MaxPool2d(kernel_size=5, stride=1, padding=2, dilation=1, ceil_mode=False)\n        (1): MaxPool2d(kernel_size=9, stride=1, padding=4, dilation=1, ceil_mode=False)\n        (2): MaxPool2d(kernel_size=13, stride=1, padding=6, dilation=1, ceil_mode=False)\n      )\n    )\n  )\n  (neck): YoloNASPANNeckWithC2(\n    (neck1): YoloNASUpStage(\n      (reduce_skip1): Conv(\n        (conv): Conv2d(384, 192, kernel_size=(1, 1), stride=(1, 1), bias=False)\n        (bn): BatchNorm2d(192, eps=0.001, momentum=0.03, affine=True, track_running_stats=True)\n        (act): ReLU(inplace=True)\n      )\n      (reduce_skip2): Conv(\n        (conv): Conv2d(192, 192, kernel_size=(1, 1), stride=(1, 1), bias=False)\n        (bn): BatchNorm2d(192, eps=0.001, momentum=0.03, affine=True, track_running_stats=True)\n        (act): ReLU(inplace=True)\n      )\n      (conv): Conv(\n        (conv): Conv2d(768, 192, kernel_size=(1, 1), stride=(1, 1), bias=False)\n        (bn): BatchNorm2d(192, eps=0.001, momentum=0.03, affine=True, track_running_stats=True)\n        (act): ReLU(inplace=True)\n      )\n      (upsample): ConvTranspose2d(192, 192, kernel_size=(2, 2), stride=(2, 2))\n      (downsample): Conv(\n        (conv): Conv2d(192, 192, kernel_size=(3, 3), stride=(2, 2), padding=(1, 1), bias=False)\n        (bn): BatchNorm2d(192, eps=0.001, momentum=0.03, affine=True, track_running_stats=True)\n        (act): ReLU(inplace=True)\n      )\n      (reduce_after_concat): Conv(\n        (conv): Conv2d(576, 192, kernel_size=(1, 1), stride=(1, 1), bias=False)\n        (bn): BatchNorm2d(192, eps=0.001, momentum=0.03, affine=True, track_running_stats=True)\n        (act): ReLU(inplace=True)\n      )\n      (blocks): YoloNASCSPLayer(\n        (conv1): Conv(\n          (conv): Conv2d(192, 128, kernel_size=(1, 1), stride=(1, 1), bias=False)\n          (bn): BatchNorm2d(128, eps=0.001, momentum=0.03, affine=True, track_running_stats=True)\n          (act): ReLU(inplace=True)\n        )\n        (conv2): Conv(\n          (conv): Conv2d(192, 128, kernel_size=(1, 1), stride=(1, 1), bias=False)\n          (bn): BatchNorm2d(128, eps=0.001, momentum=0.03, affine=True, track_running_stats=True)\n          (act): ReLU(inplace=True)\n        )\n        (conv3): Conv(\n          (conv): Conv2d(256, 192, kernel_size=(1, 1), stride=(1, 1), bias=False)\n          (bn): BatchNorm2d(192, eps=0.001, momentum=0.03, affine=True, track_running_stats=True)\n          (act): ReLU(inplace=True)\n        )\n        (bottlenecks): SequentialWithIntermediates(\n          (0): YoloNASBottleneck(\n            (cv1): QARepVGGBlock(\n              (nonlinearity): ReLU(inplace=True)\n              (se): Identity()\n              (branch_3x3): Sequential(\n                (conv): Conv2d(128, 128, kernel_size=(3, 3), stride=(1, 1), padding=(1, 1), bias=False)\n                (bn): BatchNorm2d(128, eps=0.001, momentum=0.03, affine=True, track_running_stats=True)\n              )\n              (branch_1x1): Conv2d(128, 128, kernel_size=(1, 1), stride=(1, 1))\n              (identity): Residual()\n              (post_bn): BatchNorm2d(128, eps=0.001, momentum=0.03, affine=True, track_running_stats=True)\n              (rbr_reparam): Conv2d(128, 128, kernel_size=(3, 3), stride=(1, 1), padding=(1, 1))\n            )\n            (cv2): QARepVGGBlock(\n              (nonlinearity): ReLU(inplace=True)\n              (se): Identity()\n              (branch_3x3): Sequential(\n                (conv): Conv2d(128, 128, kernel_size=(3, 3), stride=(1, 1), padding=(1, 1), bias=False)\n                (bn): BatchNorm2d(128, eps=0.001, momentum=0.03, affine=True, track_running_stats=True)\n              )\n              (branch_1x1): Conv2d(128, 128, kernel_size=(1, 1), stride=(1, 1))\n              (identity): Residual()\n              (post_bn): BatchNorm2d(128, eps=0.001, momentum=0.03, affine=True, track_running_stats=True)\n              (rbr_reparam): Conv2d(128, 128, kernel_size=(3, 3), stride=(1, 1), padding=(1, 1))\n            )\n            (shortcut): Residual()\n            (drop_path): Identity()\n          )\n          (1): YoloNASBottleneck(\n            (cv1): QARepVGGBlock(\n              (nonlinearity): ReLU(inplace=True)\n              (se): Identity()\n              (branch_3x3): Sequential(\n                (conv): Conv2d(128, 128, kernel_size=(3, 3), stride=(1, 1), padding=(1, 1), bias=False)\n                (bn): BatchNorm2d(128, eps=0.001, momentum=0.03, affine=True, track_running_stats=True)\n              )\n              (branch_1x1): Conv2d(128, 128, kernel_size=(1, 1), stride=(1, 1))\n              (identity): Residual()\n              (post_bn): BatchNorm2d(128, eps=0.001, momentum=0.03, affine=True, track_running_stats=True)\n              (rbr_reparam): Conv2d(128, 128, kernel_size=(3, 3), stride=(1, 1), padding=(1, 1))\n            )\n            (cv2): QARepVGGBlock(\n              (nonlinearity): ReLU(inplace=True)\n              (se): Identity()\n              (branch_3x3): Sequential(\n                (conv): Conv2d(128, 128, kernel_size=(3, 3), stride=(1, 1), padding=(1, 1), bias=False)\n                (bn): BatchNorm2d(128, eps=0.001, momentum=0.03, affine=True, track_running_stats=True)\n              )\n              (branch_1x1): Conv2d(128, 128, kernel_size=(1, 1), stride=(1, 1))\n              (identity): Residual()\n              (post_bn): BatchNorm2d(128, eps=0.001, momentum=0.03, affine=True, track_running_stats=True)\n              (rbr_reparam): Conv2d(128, 128, kernel_size=(3, 3), stride=(1, 1), padding=(1, 1))\n            )\n            (shortcut): Residual()\n            (drop_path): Identity()\n          )\n          (2): YoloNASBottleneck(\n            (cv1): QARepVGGBlock(\n              (nonlinearity): ReLU(inplace=True)\n              (se): Identity()\n              (branch_3x3): Sequential(\n                (conv): Conv2d(128, 128, kernel_size=(3, 3), stride=(1, 1), padding=(1, 1), bias=False)\n                (bn): BatchNorm2d(128, eps=0.001, momentum=0.03, affine=True, track_running_stats=True)\n              )\n              (branch_1x1): Conv2d(128, 128, kernel_size=(1, 1), stride=(1, 1))\n              (identity): Residual()\n              (post_bn): BatchNorm2d(128, eps=0.001, momentum=0.03, affine=True, track_running_stats=True)\n              (rbr_reparam): Conv2d(128, 128, kernel_size=(3, 3), stride=(1, 1), padding=(1, 1))\n            )\n            (cv2): QARepVGGBlock(\n              (nonlinearity): ReLU(inplace=True)\n              (se): Identity()\n              (branch_3x3): Sequential(\n                (conv): Conv2d(128, 128, kernel_size=(3, 3), stride=(1, 1), padding=(1, 1), bias=False)\n                (bn): BatchNorm2d(128, eps=0.001, momentum=0.03, affine=True, track_running_stats=True)\n              )\n              (branch_1x1): Conv2d(128, 128, kernel_size=(1, 1), stride=(1, 1))\n              (identity): Residual()\n              (post_bn): BatchNorm2d(128, eps=0.001, momentum=0.03, affine=True, track_running_stats=True)\n              (rbr_reparam): Conv2d(128, 128, kernel_size=(3, 3), stride=(1, 1), padding=(1, 1))\n            )\n            (shortcut): Residual()\n            (drop_path): Identity()\n          )\n          (3): YoloNASBottleneck(\n            (cv1): QARepVGGBlock(\n              (nonlinearity): ReLU(inplace=True)\n              (se): Identity()\n              (branch_3x3): Sequential(\n                (conv): Conv2d(128, 128, kernel_size=(3, 3), stride=(1, 1), padding=(1, 1), bias=False)\n                (bn): BatchNorm2d(128, eps=0.001, momentum=0.03, affine=True, track_running_stats=True)\n              )\n              (branch_1x1): Conv2d(128, 128, kernel_size=(1, 1), stride=(1, 1))\n              (identity): Residual()\n              (post_bn): BatchNorm2d(128, eps=0.001, momentum=0.03, affine=True, track_running_stats=True)\n              (rbr_reparam): Conv2d(128, 128, kernel_size=(3, 3), stride=(1, 1), padding=(1, 1))\n            )\n            (cv2): QARepVGGBlock(\n              (nonlinearity): ReLU(inplace=True)\n              (se): Identity()\n              (branch_3x3): Sequential(\n                (conv): Conv2d(128, 128, kernel_size=(3, 3), stride=(1, 1), padding=(1, 1), bias=False)\n                (bn): BatchNorm2d(128, eps=0.001, momentum=0.03, affine=True, track_running_stats=True)\n              )\n              (branch_1x1): Conv2d(128, 128, kernel_size=(1, 1), stride=(1, 1))\n              (identity): Residual()\n              (post_bn): BatchNorm2d(128, eps=0.001, momentum=0.03, affine=True, track_running_stats=True)\n              (rbr_reparam): Conv2d(128, 128, kernel_size=(3, 3), stride=(1, 1), padding=(1, 1))\n            )\n            (shortcut): Residual()\n            (drop_path): Identity()\n          )\n        )\n        (dropout): Identity()\n      )\n    )\n    (neck2): YoloNASUpStage(\n      (reduce_skip1): Conv(\n        (conv): Conv2d(192, 96, kernel_size=(1, 1), stride=(1, 1), bias=False)\n        (bn): BatchNorm2d(96, eps=0.001, momentum=0.03, affine=True, track_running_stats=True)\n        (act): ReLU(inplace=True)\n      )\n      (reduce_skip2): Conv(\n        (conv): Conv2d(96, 96, kernel_size=(1, 1), stride=(1, 1), bias=False)\n        (bn): BatchNorm2d(96, eps=0.001, momentum=0.03, affine=True, track_running_stats=True)\n        (act): ReLU(inplace=True)\n      )\n      (conv): Conv(\n        (conv): Conv2d(192, 96, kernel_size=(1, 1), stride=(1, 1), bias=False)\n        (bn): BatchNorm2d(96, eps=0.001, momentum=0.03, affine=True, track_running_stats=True)\n        (act): ReLU(inplace=True)\n      )\n      (upsample): ConvTranspose2d(96, 96, kernel_size=(2, 2), stride=(2, 2))\n      (downsample): Conv(\n        (conv): Conv2d(96, 96, kernel_size=(3, 3), stride=(2, 2), padding=(1, 1), bias=False)\n        (bn): BatchNorm2d(96, eps=0.001, momentum=0.03, affine=True, track_running_stats=True)\n        (act): ReLU(inplace=True)\n      )\n      (reduce_after_concat): Conv(\n        (conv): Conv2d(288, 96, kernel_size=(1, 1), stride=(1, 1), bias=False)\n        (bn): BatchNorm2d(96, eps=0.001, momentum=0.03, affine=True, track_running_stats=True)\n        (act): ReLU(inplace=True)\n      )\n      (blocks): YoloNASCSPLayer(\n        (conv1): Conv(\n          (conv): Conv2d(96, 128, kernel_size=(1, 1), stride=(1, 1), bias=False)\n          (bn): BatchNorm2d(128, eps=0.001, momentum=0.03, affine=True, track_running_stats=True)\n          (act): ReLU(inplace=True)\n        )\n        (conv2): Conv(\n          (conv): Conv2d(96, 128, kernel_size=(1, 1), stride=(1, 1), bias=False)\n          (bn): BatchNorm2d(128, eps=0.001, momentum=0.03, affine=True, track_running_stats=True)\n          (act): ReLU(inplace=True)\n        )\n        (conv3): Conv(\n          (conv): Conv2d(256, 96, kernel_size=(1, 1), stride=(1, 1), bias=False)\n          (bn): BatchNorm2d(96, eps=0.001, momentum=0.03, affine=True, track_running_stats=True)\n          (act): ReLU(inplace=True)\n        )\n        (bottlenecks): SequentialWithIntermediates(\n          (0): YoloNASBottleneck(\n            (cv1): QARepVGGBlock(\n              (nonlinearity): ReLU(inplace=True)\n              (se): Identity()\n              (branch_3x3): Sequential(\n                (conv): Conv2d(128, 128, kernel_size=(3, 3), stride=(1, 1), padding=(1, 1), bias=False)\n                (bn): BatchNorm2d(128, eps=0.001, momentum=0.03, affine=True, track_running_stats=True)\n              )\n              (branch_1x1): Conv2d(128, 128, kernel_size=(1, 1), stride=(1, 1))\n              (identity): Residual()\n              (post_bn): BatchNorm2d(128, eps=0.001, momentum=0.03, affine=True, track_running_stats=True)\n              (rbr_reparam): Conv2d(128, 128, kernel_size=(3, 3), stride=(1, 1), padding=(1, 1))\n            )\n            (cv2): QARepVGGBlock(\n              (nonlinearity): ReLU(inplace=True)\n              (se): Identity()\n              (branch_3x3): Sequential(\n                (conv): Conv2d(128, 128, kernel_size=(3, 3), stride=(1, 1), padding=(1, 1), bias=False)\n                (bn): BatchNorm2d(128, eps=0.001, momentum=0.03, affine=True, track_running_stats=True)\n              )\n              (branch_1x1): Conv2d(128, 128, kernel_size=(1, 1), stride=(1, 1))\n              (identity): Residual()\n              (post_bn): BatchNorm2d(128, eps=0.001, momentum=0.03, affine=True, track_running_stats=True)\n              (rbr_reparam): Conv2d(128, 128, kernel_size=(3, 3), stride=(1, 1), padding=(1, 1))\n            )\n            (shortcut): Residual()\n            (drop_path): Identity()\n          )\n          (1): YoloNASBottleneck(\n            (cv1): QARepVGGBlock(\n              (nonlinearity): ReLU(inplace=True)\n              (se): Identity()\n              (branch_3x3): Sequential(\n                (conv): Conv2d(128, 128, kernel_size=(3, 3), stride=(1, 1), padding=(1, 1), bias=False)\n                (bn): BatchNorm2d(128, eps=0.001, momentum=0.03, affine=True, track_running_stats=True)\n              )\n              (branch_1x1): Conv2d(128, 128, kernel_size=(1, 1), stride=(1, 1))\n              (identity): Residual()\n              (post_bn): BatchNorm2d(128, eps=0.001, momentum=0.03, affine=True, track_running_stats=True)\n              (rbr_reparam): Conv2d(128, 128, kernel_size=(3, 3), stride=(1, 1), padding=(1, 1))\n            )\n            (cv2): QARepVGGBlock(\n              (nonlinearity): ReLU(inplace=True)\n              (se): Identity()\n              (branch_3x3): Sequential(\n                (conv): Conv2d(128, 128, kernel_size=(3, 3), stride=(1, 1), padding=(1, 1), bias=False)\n                (bn): BatchNorm2d(128, eps=0.001, momentum=0.03, affine=True, track_running_stats=True)\n              )\n              (branch_1x1): Conv2d(128, 128, kernel_size=(1, 1), stride=(1, 1))\n              (identity): Residual()\n              (post_bn): BatchNorm2d(128, eps=0.001, momentum=0.03, affine=True, track_running_stats=True)\n              (rbr_reparam): Conv2d(128, 128, kernel_size=(3, 3), stride=(1, 1), padding=(1, 1))\n            )\n            (shortcut): Residual()\n            (drop_path): Identity()\n          )\n          (2): YoloNASBottleneck(\n            (cv1): QARepVGGBlock(\n              (nonlinearity): ReLU(inplace=True)\n              (se): Identity()\n              (branch_3x3): Sequential(\n                (conv): Conv2d(128, 128, kernel_size=(3, 3), stride=(1, 1), padding=(1, 1), bias=False)\n                (bn): BatchNorm2d(128, eps=0.001, momentum=0.03, affine=True, track_running_stats=True)\n              )\n              (branch_1x1): Conv2d(128, 128, kernel_size=(1, 1), stride=(1, 1))\n              (identity): Residual()\n              (post_bn): BatchNorm2d(128, eps=0.001, momentum=0.03, affine=True, track_running_stats=True)\n              (rbr_reparam): Conv2d(128, 128, kernel_size=(3, 3), stride=(1, 1), padding=(1, 1))\n            )\n            (cv2): QARepVGGBlock(\n              (nonlinearity): ReLU(inplace=True)\n              (se): Identity()\n              (branch_3x3): Sequential(\n                (conv): Conv2d(128, 128, kernel_size=(3, 3), stride=(1, 1), padding=(1, 1), bias=False)\n                (bn): BatchNorm2d(128, eps=0.001, momentum=0.03, affine=True, track_running_stats=True)\n              )\n              (branch_1x1): Conv2d(128, 128, kernel_size=(1, 1), stride=(1, 1))\n              (identity): Residual()\n              (post_bn): BatchNorm2d(128, eps=0.001, momentum=0.03, affine=True, track_running_stats=True)\n              (rbr_reparam): Conv2d(128, 128, kernel_size=(3, 3), stride=(1, 1), padding=(1, 1))\n            )\n            (shortcut): Residual()\n            (drop_path): Identity()\n          )\n          (3): YoloNASBottleneck(\n            (cv1): QARepVGGBlock(\n              (nonlinearity): ReLU(inplace=True)\n              (se): Identity()\n              (branch_3x3): Sequential(\n                (conv): Conv2d(128, 128, kernel_size=(3, 3), stride=(1, 1), padding=(1, 1), bias=False)\n                (bn): BatchNorm2d(128, eps=0.001, momentum=0.03, affine=True, track_running_stats=True)\n              )\n              (branch_1x1): Conv2d(128, 128, kernel_size=(1, 1), stride=(1, 1))\n              (identity): Residual()\n              (post_bn): BatchNorm2d(128, eps=0.001, momentum=0.03, affine=True, track_running_stats=True)\n              (rbr_reparam): Conv2d(128, 128, kernel_size=(3, 3), stride=(1, 1), padding=(1, 1))\n            )\n            (cv2): QARepVGGBlock(\n              (nonlinearity): ReLU(inplace=True)\n              (se): Identity()\n              (branch_3x3): Sequential(\n                (conv): Conv2d(128, 128, kernel_size=(3, 3), stride=(1, 1), padding=(1, 1), bias=False)\n                (bn): BatchNorm2d(128, eps=0.001, momentum=0.03, affine=True, track_running_stats=True)\n              )\n              (branch_1x1): Conv2d(128, 128, kernel_size=(1, 1), stride=(1, 1))\n              (identity): Residual()\n              (post_bn): BatchNorm2d(128, eps=0.001, momentum=0.03, affine=True, track_running_stats=True)\n              (rbr_reparam): Conv2d(128, 128, kernel_size=(3, 3), stride=(1, 1), padding=(1, 1))\n            )\n            (shortcut): Residual()\n            (drop_path): Identity()\n          )\n        )\n        (dropout): Identity()\n      )\n    )\n    (neck3): YoloNASDownStage(\n      (conv): Conv(\n        (conv): Conv2d(96, 96, kernel_size=(3, 3), stride=(2, 2), padding=(1, 1), bias=False)\n        (bn): BatchNorm2d(96, eps=0.001, momentum=0.03, affine=True, track_running_stats=True)\n        (act): ReLU(inplace=True)\n      )\n      (blocks): YoloNASCSPLayer(\n        (conv1): Conv(\n          (conv): Conv2d(192, 128, kernel_size=(1, 1), stride=(1, 1), bias=False)\n          (bn): BatchNorm2d(128, eps=0.001, momentum=0.03, affine=True, track_running_stats=True)\n          (act): ReLU(inplace=True)\n        )\n        (conv2): Conv(\n          (conv): Conv2d(192, 128, kernel_size=(1, 1), stride=(1, 1), bias=False)\n          (bn): BatchNorm2d(128, eps=0.001, momentum=0.03, affine=True, track_running_stats=True)\n          (act): ReLU(inplace=True)\n        )\n        (conv3): Conv(\n          (conv): Conv2d(256, 192, kernel_size=(1, 1), stride=(1, 1), bias=False)\n          (bn): BatchNorm2d(192, eps=0.001, momentum=0.03, affine=True, track_running_stats=True)\n          (act): ReLU(inplace=True)\n        )\n        (bottlenecks): SequentialWithIntermediates(\n          (0): YoloNASBottleneck(\n            (cv1): Conv(\n              (conv): Conv2d(128, 128, kernel_size=(3, 3), stride=(1, 1), padding=(1, 1), bias=False)\n              (bn): BatchNorm2d(128, eps=0.001, momentum=0.03, affine=True, track_running_stats=True)\n              (act): ReLU(inplace=True)\n            )\n            (cv2): Conv(\n              (conv): Conv2d(128, 128, kernel_size=(3, 3), stride=(1, 1), padding=(1, 1), bias=False)\n              (bn): BatchNorm2d(128, eps=0.001, momentum=0.03, affine=True, track_running_stats=True)\n              (act): ReLU(inplace=True)\n            )\n            (shortcut): Residual()\n            (drop_path): Identity()\n          )\n          (1): YoloNASBottleneck(\n            (cv1): Conv(\n              (conv): Conv2d(128, 128, kernel_size=(3, 3), stride=(1, 1), padding=(1, 1), bias=False)\n              (bn): BatchNorm2d(128, eps=0.001, momentum=0.03, affine=True, track_running_stats=True)\n              (act): ReLU(inplace=True)\n            )\n            (cv2): Conv(\n              (conv): Conv2d(128, 128, kernel_size=(3, 3), stride=(1, 1), padding=(1, 1), bias=False)\n              (bn): BatchNorm2d(128, eps=0.001, momentum=0.03, affine=True, track_running_stats=True)\n              (act): ReLU(inplace=True)\n            )\n            (shortcut): Residual()\n            (drop_path): Identity()\n          )\n          (2): YoloNASBottleneck(\n            (cv1): Conv(\n              (conv): Conv2d(128, 128, kernel_size=(3, 3), stride=(1, 1), padding=(1, 1), bias=False)\n              (bn): BatchNorm2d(128, eps=0.001, momentum=0.03, affine=True, track_running_stats=True)\n              (act): ReLU(inplace=True)\n            )\n            (cv2): Conv(\n              (conv): Conv2d(128, 128, kernel_size=(3, 3), stride=(1, 1), padding=(1, 1), bias=False)\n              (bn): BatchNorm2d(128, eps=0.001, momentum=0.03, affine=True, track_running_stats=True)\n              (act): ReLU(inplace=True)\n            )\n            (shortcut): Residual()\n            (drop_path): Identity()\n          )\n          (3): YoloNASBottleneck(\n            (cv1): Conv(\n              (conv): Conv2d(128, 128, kernel_size=(3, 3), stride=(1, 1), padding=(1, 1), bias=False)\n              (bn): BatchNorm2d(128, eps=0.001, momentum=0.03, affine=True, track_running_stats=True)\n              (act): ReLU(inplace=True)\n            )\n            (cv2): Conv(\n              (conv): Conv2d(128, 128, kernel_size=(3, 3), stride=(1, 1), padding=(1, 1), bias=False)\n              (bn): BatchNorm2d(128, eps=0.001, momentum=0.03, affine=True, track_running_stats=True)\n              (act): ReLU(inplace=True)\n            )\n            (shortcut): Residual()\n            (drop_path): Identity()\n          )\n        )\n        (dropout): Identity()\n      )\n    )\n    (neck4): YoloNASDownStage(\n      (conv): Conv(\n        (conv): Conv2d(192, 192, kernel_size=(3, 3), stride=(2, 2), padding=(1, 1), bias=False)\n        (bn): BatchNorm2d(192, eps=0.001, momentum=0.03, affine=True, track_running_stats=True)\n        (act): ReLU(inplace=True)\n      )\n      (blocks): YoloNASCSPLayer(\n        (conv1): Conv(\n          (conv): Conv2d(384, 256, kernel_size=(1, 1), stride=(1, 1), bias=False)\n          (bn): BatchNorm2d(256, eps=0.001, momentum=0.03, affine=True, track_running_stats=True)\n          (act): ReLU(inplace=True)\n        )\n        (conv2): Conv(\n          (conv): Conv2d(384, 256, kernel_size=(1, 1), stride=(1, 1), bias=False)\n          (bn): BatchNorm2d(256, eps=0.001, momentum=0.03, affine=True, track_running_stats=True)\n          (act): ReLU(inplace=True)\n        )\n        (conv3): Conv(\n          (conv): Conv2d(512, 384, kernel_size=(1, 1), stride=(1, 1), bias=False)\n          (bn): BatchNorm2d(384, eps=0.001, momentum=0.03, affine=True, track_running_stats=True)\n          (act): ReLU(inplace=True)\n        )\n        (bottlenecks): SequentialWithIntermediates(\n          (0): YoloNASBottleneck(\n            (cv1): Conv(\n              (conv): Conv2d(256, 256, kernel_size=(3, 3), stride=(1, 1), padding=(1, 1), bias=False)\n              (bn): BatchNorm2d(256, eps=0.001, momentum=0.03, affine=True, track_running_stats=True)\n              (act): ReLU(inplace=True)\n            )\n            (cv2): Conv(\n              (conv): Conv2d(256, 256, kernel_size=(3, 3), stride=(1, 1), padding=(1, 1), bias=False)\n              (bn): BatchNorm2d(256, eps=0.001, momentum=0.03, affine=True, track_running_stats=True)\n              (act): ReLU(inplace=True)\n            )\n            (shortcut): Residual()\n            (drop_path): Identity()\n          )\n          (1): YoloNASBottleneck(\n            (cv1): Conv(\n              (conv): Conv2d(256, 256, kernel_size=(3, 3), stride=(1, 1), padding=(1, 1), bias=False)\n              (bn): BatchNorm2d(256, eps=0.001, momentum=0.03, affine=True, track_running_stats=True)\n              (act): ReLU(inplace=True)\n            )\n            (cv2): Conv(\n              (conv): Conv2d(256, 256, kernel_size=(3, 3), stride=(1, 1), padding=(1, 1), bias=False)\n              (bn): BatchNorm2d(256, eps=0.001, momentum=0.03, affine=True, track_running_stats=True)\n              (act): ReLU(inplace=True)\n            )\n            (shortcut): Residual()\n            (drop_path): Identity()\n          )\n          (2): YoloNASBottleneck(\n            (cv1): Conv(\n              (conv): Conv2d(256, 256, kernel_size=(3, 3), stride=(1, 1), padding=(1, 1), bias=False)\n              (bn): BatchNorm2d(256, eps=0.001, momentum=0.03, affine=True, track_running_stats=True)\n              (act): ReLU(inplace=True)\n            )\n            (cv2): Conv(\n              (conv): Conv2d(256, 256, kernel_size=(3, 3), stride=(1, 1), padding=(1, 1), bias=False)\n              (bn): BatchNorm2d(256, eps=0.001, momentum=0.03, affine=True, track_running_stats=True)\n              (act): ReLU(inplace=True)\n            )\n            (shortcut): Residual()\n            (drop_path): Identity()\n          )\n          (3): YoloNASBottleneck(\n            (cv1): Conv(\n              (conv): Conv2d(256, 256, kernel_size=(3, 3), stride=(1, 1), padding=(1, 1), bias=False)\n              (bn): BatchNorm2d(256, eps=0.001, momentum=0.03, affine=True, track_running_stats=True)\n              (act): ReLU(inplace=True)\n            )\n            (cv2): Conv(\n              (conv): Conv2d(256, 256, kernel_size=(3, 3), stride=(1, 1), padding=(1, 1), bias=False)\n              (bn): BatchNorm2d(256, eps=0.001, momentum=0.03, affine=True, track_running_stats=True)\n              (act): ReLU(inplace=True)\n            )\n            (shortcut): Residual()\n            (drop_path): Identity()\n          )\n        )\n        (dropout): Identity()\n      )\n    )\n  )\n  (heads): NDFLHeads(\n    (head1): YoloNASDFLHead(\n      (stem): ConvBNReLU(\n        (seq): Sequential(\n          (conv): Conv2d(96, 128, kernel_size=(1, 1), stride=(1, 1), bias=False)\n          (bn): BatchNorm2d(128, eps=0.001, momentum=0.03, affine=True, track_running_stats=True)\n          (act): ReLU(inplace=True)\n        )\n      )\n      (cls_convs): Sequential(\n        (0): ConvBNReLU(\n          (seq): Sequential(\n            (conv): Conv2d(128, 128, kernel_size=(3, 3), stride=(1, 1), padding=(1, 1), bias=False)\n            (bn): BatchNorm2d(128, eps=0.001, momentum=0.03, affine=True, track_running_stats=True)\n            (act): ReLU(inplace=True)\n          )\n        )\n      )\n      (reg_convs): Sequential(\n        (0): ConvBNReLU(\n          (seq): Sequential(\n            (conv): Conv2d(128, 128, kernel_size=(3, 3), stride=(1, 1), padding=(1, 1), bias=False)\n            (bn): BatchNorm2d(128, eps=0.001, momentum=0.03, affine=True, track_running_stats=True)\n            (act): ReLU(inplace=True)\n          )\n        )\n      )\n      (cls_pred): Conv2d(128, 2, kernel_size=(1, 1), stride=(1, 1))\n      (reg_pred): Conv2d(128, 68, kernel_size=(1, 1), stride=(1, 1))\n      (cls_dropout_rate): Identity()\n      (reg_dropout_rate): Identity()\n    )\n    (head2): YoloNASDFLHead(\n      (stem): ConvBNReLU(\n        (seq): Sequential(\n          (conv): Conv2d(192, 256, kernel_size=(1, 1), stride=(1, 1), bias=False)\n          (bn): BatchNorm2d(256, eps=0.001, momentum=0.03, affine=True, track_running_stats=True)\n          (act): ReLU(inplace=True)\n        )\n      )\n      (cls_convs): Sequential(\n        (0): ConvBNReLU(\n          (seq): Sequential(\n            (conv): Conv2d(256, 256, kernel_size=(3, 3), stride=(1, 1), padding=(1, 1), bias=False)\n            (bn): BatchNorm2d(256, eps=0.001, momentum=0.03, affine=True, track_running_stats=True)\n            (act): ReLU(inplace=True)\n          )\n        )\n      )\n      (reg_convs): Sequential(\n        (0): ConvBNReLU(\n          (seq): Sequential(\n            (conv): Conv2d(256, 256, kernel_size=(3, 3), stride=(1, 1), padding=(1, 1), bias=False)\n            (bn): BatchNorm2d(256, eps=0.001, momentum=0.03, affine=True, track_running_stats=True)\n            (act): ReLU(inplace=True)\n          )\n        )\n      )\n      (cls_pred): Conv2d(256, 2, kernel_size=(1, 1), stride=(1, 1))\n      (reg_pred): Conv2d(256, 68, kernel_size=(1, 1), stride=(1, 1))\n      (cls_dropout_rate): Identity()\n      (reg_dropout_rate): Identity()\n    )\n    (head3): YoloNASDFLHead(\n      (stem): ConvBNReLU(\n        (seq): Sequential(\n          (conv): Conv2d(384, 512, kernel_size=(1, 1), stride=(1, 1), bias=False)\n          (bn): BatchNorm2d(512, eps=0.001, momentum=0.03, affine=True, track_running_stats=True)\n          (act): ReLU(inplace=True)\n        )\n      )\n      (cls_convs): Sequential(\n        (0): ConvBNReLU(\n          (seq): Sequential(\n            (conv): Conv2d(512, 512, kernel_size=(3, 3), stride=(1, 1), padding=(1, 1), bias=False)\n            (bn): BatchNorm2d(512, eps=0.001, momentum=0.03, affine=True, track_running_stats=True)\n            (act): ReLU(inplace=True)\n          )\n        )\n      )\n      (reg_convs): Sequential(\n        (0): ConvBNReLU(\n          (seq): Sequential(\n            (conv): Conv2d(512, 512, kernel_size=(3, 3), stride=(1, 1), padding=(1, 1), bias=False)\n            (bn): BatchNorm2d(512, eps=0.001, momentum=0.03, affine=True, track_running_stats=True)\n            (act): ReLU(inplace=True)\n          )\n        )\n      )\n      (cls_pred): Conv2d(512, 2, kernel_size=(1, 1), stride=(1, 1))\n      (reg_pred): Conv2d(512, 68, kernel_size=(1, 1), stride=(1, 1))\n      (cls_dropout_rate): Identity()\n      (reg_dropout_rate): Identity()\n    )\n  )\n)",
        "max_epochs": 100,
        "loss": "PPYoloELoss(\n  (static_assigner): ATSSAssigner()\n  (assigner): TaskAlignedAssigner()\n)"
    },
    "dataset_params": {
        "train_dataset_params": "{'data_dir': '/content/drive/MyDrive/Dataset', 'images_dir': '/c
…
